…
ctive database: graph.db Directories in use: home: /var/lib/neo4j config: /etc/neo4j logs: /var/log/neo4j plugins: /var/lib/neo4j/plugins import: /var/lib/neo4j/import data: /var/lib/neo4j/data certificates: /var/lib/neo4j/certificates run: /var/run/neo4j Starting Neo4j. Started neo4j (pid 17565). It is available at http://0.0.0.0:7474/ There may be a short delay until the server is ready. See /var/log/neo4j/neo4j.log for current status. Stopping Neo4j.. stopped \u8fd0\u884c\u4e00\u4e2a\u4f7f\u7528Pytorch\u7684\u7a0b\u5e8f: cd /data python3 pytorch_demo.py \u8f93\u51fa\u6548\u679c: Net( (conv1): Conv2d(1, 6, kernel_size=(3, 3), stride=(1, 1)) (conv2): Conv2d(6, 16, kernel_size=(3, 3), stride=(1, 1)) (fc1): Linear(in_features=576, out_features=120, bias=True) (fc2): Linear(in_features=120, out_features=84, bias=True) (fc3): Linear(in_features=84, out_features=10, bias=True) ) \u603b\u7ed3 \u00b6 \u6211\u4eec\u5b66\u4e60\u4e86\u4e00\u4e9b\u7b80\u5355\u7684\u67e5\u770b\u547d\u4ee4\u4ee5\u9002\u5e94\u670d\u52a1\u5668\u73af\u5883\u3002 \u5f53\u7136\u8be5\u955c\u50cf\u670d\u52a1\u5668\u4e0a\u8fd8\u5b89\u88c5\u4e86\u5f88\u591a\u5de5\u5177\uff0c\u5982nginx\uff0credis\uff0csupervisor\u7b49\u7b49\uff0c\u8fd9\u5728\u6211\u4eec\u8bfe\
…
ctive database: graph.db Directories in use: home: /var/lib/neo4j config: /etc/neo4j logs: /var/log/neo4j plugins: /var/lib/neo4j/plugins import: /var/lib/neo4j/import data: /var/lib/neo4j/data certificates: /var/lib/neo4j/certificates run: /var/run/neo4j Starting Neo4j. Started neo4j (pid 17565). It is available at http://0.0.0.0:7474/ There may be a short delay until the server is ready. See /var/log/neo4j/neo4j.log for current status. Stopping Neo4j.. stopped \u8fd0\u884c\u4e00\u4e2a\u4f7f\u7528Pytorch\u7684\u7a0b\u5e8f: cd /data python3 pytorch_demo.py \u8f93\u51fa\u6548\u679c: Net( (conv1): Conv2d(1, 6, kernel_size=(3, 3), stride=(1, 1)) (conv2): Conv2d(6, 16, kernel_size=(3, 3), stride=(1, 1)) (fc1): Linear(in_features=576, out_features=120, bias=True) (fc2): Linear(in_features=120, out_features=84, bias=True) (fc3): Linear(in_features=84, out_features=10, bias=True) )","title":"\u57fa\u672c\u64cd\u4f5c"},{"location":"01_mkdocs_NLP/2_%E4%BA%91%E6%9C%8D%E5%8A%A1%E5%99%A8%E4%BD%BF%E7%94%A8%E5%85%A5%E9%97%A8.html#_4","text":"\u6211\u4eec\u5b66\u4e60\u4e86\u4e00\u4e9b\u7b80\u5355\u7684\u67e5\u770b\u547d\u4ee4\u4ee5\u9002\u5e94\u670d\u52a1\u5668\u73af\u5883\u3002 \u5f53\u7136\u8be5\u955c\u50cf\u670d\u52a1\u5668\u4e0a\u8fd
…
